…
BATCH_SIZE: 16
EPOCHS:     300
==========================================================================================================================================================================
Layer (type:depth-idx)                        Input Shape               Output Shape              Param #                   Kernel Shape              Mult-Adds
==========================================================================================================================================================================
MultiAngleScaleVisionTransformer              [1, 3, 48, 48]            [1, 43]                   5,120                     --                        --
├─Conv2d: 1-1                                 [1, 3, 48, 48]            [1, 64, 48, 48]           256                       [1, 1]                    589,824
├─BatchNorm2d: 1-2                            [1, 64, 48, 48]           [1, 64, 48, 48]           128                       --                        128
├─Conv2d: 1-3                                 [1, 64, 48, 48]           [1, 128, 48, 46]          24,704                    [1, 3]                    54,546,432
├─BatchNorm2d: 1-4                            [1, 128, 48, 46]          [1, 128, 48, 46]          256                       --                        256
├─Conv2d: 1-5                                 [1, 128, 48, 46]          [1, 256, 48, 42]          164,096                   [1, 5]                    330,817,536
├─BatchNorm2d: 1-6                            [1, 256, 48, 42]          [1, 256, 48, 42]          512                       --                        512
├─Conv2d: 1-7                                 [1, 256, 48, 6]           [1, 512, 48, 1]           786,944                   [1, 6]                    37,773,312
├─BatchNorm2d: 1-8                            [1, 512, 48, 1]           [1, 512, 48, 1]           1,024                     --                        1,024
├─Conv2d: 1-9                                 [1, 512, 48, 1]           [1, 512, 46, 1]           786,944                   [3, 1]                    36,199,424
├─BatchNorm2d: 1-10                           [1, 512, 46, 1]           [1, 512, 46, 1]           1,024                     --                        1,024
├─Conv2d: 1-11                                [1, 512, 46, 1]           [1, 512, 44, 1]           786,944                   [3, 1]                    34,625,536
├─BatchNorm2d: 1-12                           [1, 512, 44, 1]           [1, 512, 44, 1]           1,024                     --                        1,024
├─Conv2d: 1-13                                [1, 512, 44, 1]           [1, 512, 42, 1]           786,944                   [3, 1]                    33,051,648
├─BatchNorm2d: 1-14                           [1, 512, 42, 1]           [1, 512, 42, 1]           1,024                     --                        1,024
├─Conv2d: 1-15                                [1, 512, 42, 1]           [1, 512, 40, 1]           786,944                   [3, 1]                    31,477,760
├─BatchNorm2d: 1-16                           [1, 512, 40, 1]           [1, 512, 40, 1]           1,024                     --                        1,024
├─AngleDropout: 1-17                          [1, 512, 8, 1]            [1, 512, 8, 1]            --                        --                        --
├─Flatten: 1-18                               [1, 512, 8, 1]            [1, 512, 8]               --                        --                        --
├─Dropout: 1-19                               [1, 9, 512]               [1, 9, 512]               --                        --                        --
├─TransformerEncoder: 1-20                    [1, 9, 512]               [1, 9, 512]               --                        --                        --
│    └─ModuleList: 2-1                        --                        --                        --                        --                        --
│    │    └─TransformerEncoderLayer: 3-1      [1, 9, 512]               [1, 9, 512]               1,577,984                 --                        0
│    │    └─TransformerEncoderLayer: 3-2      [1, 9, 512]               [1, 9, 512]               1,577,984                 --                        0
│    │    └─TransformerEncoderLayer: 3-3      [1, 9, 512]               [1, 9, 512]               1,577,984                 --                        0
│    │    └─TransformerEncoderLayer: 3-4      [1, 9, 512]               [1, 9, 512]               1,577,984                 --                        0
│    │    └─TransformerEncoderLayer: 3-5      [1, 9, 512]               [1, 9, 512]               1,577,984                 --                        0
│    │    └─TransformerEncoderLayer: 3-6      [1, 9, 512]               [1, 9, 512]               1,577,984                 --                        0
│    │    └─TransformerEncoderLayer: 3-7      [1, 9, 512]               [1, 9, 512]               1,577,984                 --                        0
│    │    └─TransformerEncoderLayer: 3-8      [1, 9, 512]               [1, 9, 512]               1,577,984                 --                        0
├─Sequential: 1-21                            [1, 512]                  [1, 43]                   --                        --                        --
│    └─LayerNorm: 2-2                         [1, 512]                  [1, 512]                  1,024                     --                        1,024
│    └─Linear: 2-3                            [1, 512]                  [1, 43]                   22,059                    --                        22,059
==========================================================================================================================================================================
Total params: 16,781,867
Trainable params: 16,781,867
Non-trainable params: 0
Total mult-adds (M): 559.11
==========================================================================================================================================================================
…
